data.pth (torch, 8471 bytes, 6 tensors)

l1.weight f4 [8, 112]
0.18989217 -0.118232176 0.6550933 -1.3278899 -0.46744075 -0.576325 -0.121112384 0.075555794
0.07344845 0.31793302 0.6257615 0.18822338 -0.30675566 0.22920147 -0.44476074 0.12832025
-0.34128082 -0.71294457 -0.3348037 -0.2882451 0.8626297 0.20542613 0.9656937 -0.60394454
-0.112239935 0.7977303 -0.55766386 0.25527927 0.14435494 -0.5669719 0.3058496 0.47944742
0.2899868 0.68080884 0.20026077 -0.083080135 -0.4853451 0.8356839 1.3257419 -0.6158646
0.2793817 -0.08994887 0.7915757 0.35570654 0.32440105 -0.76275265 -0.18530259 -0.705461
-0.7767522 1.0168902 -0.55266297 0.17113006 0.73582935 -0.07365403 0.8285664 0.23646279
-0.08056069 -0.32074896 1.0944916 0.22949798 0.36312592 0.13278545 0.6964306 0.68132645
0.4504125 0.16480038 0.27588862 1.361971 -0.17772838 0.14513567 0.110605896 0.3774516
0.96356547 0.43897587 -0.8889354 -0.24677163 -0.74134785 0.32042822 0.14354539 -0.8885632
-0.016872916 0.08914577 -0.09914255 0.44841072 -0.77978563 -0.63223445 0.65933686 0.33282867
0.46781978 -1.0873154 -0.5200539 0.4380738 0.10223818 0.8377877 0.104427725 0.48238808
0.3236172 0.9822516 -0.18233418 0.13729945 -0.52073866 -0.110573374 0.25778684 -0.35826194
0.11665486 0.4259926 0.37369096 0.01203523 0.41025683 0.2727597 0.27664164 0.95132214
0.21808667 -0.22531338 -1.1175113 0.83137935 -0.46556386 1.2657111 -0.14019805 0.22610784
0.04985141 0.1159368 0.62271625 0.4533255 0.7591033 -0.035160355 0.29657042 0.26296115
-0.42534333 -0.5592552 -0.055156097 -0.17948988 -0.31742963 0.35964045 0.47875172 -0.34443712
-0.6494555 -0.20587088 -0.77321285 -0.637942 -0.7406772 0.7678285 -0.1377736 0.13089833
0.4467236 0.38140094 0.9185514 -0.094015196 -0.90040797 -0.30829751 -0.82970154 -0.31188855
-0.2539682 0.1257494 -0.35752878 -0.30489516 -0.079180025 0.71979845 -0.36785638 0.7668818
0.7323532 0.52505267 0.74154216 0.038085304 0.068898715 -0.07770984 -0.65344423 -0.05616205
0.4428883 0.100194745 -0.8289234 0.38199866 -0.24935935 0.17159626 0.39547774 0.3862447
-0.033257138 0.1896508 -0.33055303 -0.7753852 -0.32635915 0.004180436 0.034111604 1.1095462
0.44292724 0.1574009 1.0412152 -0.53242266 1.2405199 0.027696779 0.24764664 0.6881324
-0.13507646 0.034655094 -0.77206165 0.11737962 -0.3121664 -0.8289117 -0.16240434 -0.0748473
-0.17745294 1.1741911 -0.7724207 -0.31360063 0.16953038 -0.29222205 -0.3239865 -0.18937497
0.6103142 0.50698483 0.35666224 0.10256204 -0.82890403 -0.23574732 0.035723742 0.2435422
0.10838549 -0.113610566 -0.3824488 0.20908919 0.3397495 0.40521178 0.036134273 0.0017766159
0.08752875 -0.25260386 0.8015326 0.30879617 -0.7389291 -0.37164965 0.15168999 0.23079814
0.64482915 0.24048479 0.5600637 0.13128851 -0.7599557 0.1830536 0.36569437 0.26711625
0.052682914 0.024114437 -0.18619253 -0.23361298 -0.57021636 0.19030489 0.6102339 -0.33145824
-0.47855625 0.045903075 0.9429089 0.5076364 0.5612373 0.67680275 0.15128767 0.33642408
00000000: 1873 423e b623 f2bd 32b4 273f 4cf8 a9bf
00000010: 6554 efbe 098a 13bf c509 f8bd ffbc 9a3d
00000020: 246c 963d 1ec8 a23e e831 203f a1bd 403e
00000030: 140f 9dbe cab3 6a3e aeb7 e3be 6266 033e
00000040: 5cbc aebe 8983 36bf 646b abbe dd94 93be
00000050: 4dd5 5c3f 3a5b 523e b437 773f 1c9c 1abf
00000060: 0dde e5bd 0e38 4c3f 0fc3 0ebf f7b3 823e
00000070: c8d1 133e 1225 11bf 5298 9c3e 227a f53e
00000080: 2679 943e 7d49 2e3f 2911 4d3e eb25 aabd
00000090: 277f f8be 61ef 553f e9b1 a93f 4da9 1dbf
000000a0: 1e0b 8f3e 1d37 b8bd b4a4 4a3f 2b1f b63e
000000b0: e517 a63e c243 43bf f6bf 3dbe 1899 34bf
000000c0: 3bd9 46bf 7529 823f 527b 0dbf b83c 2f3e
000000d0: 505f 3c3f edd7 96bd ed1c 543f 4d23 723e
000000e0: 01fd a4bd 3539 a4be 4d18 8c3f 8501 6b3e
000000f0: a4eb b93e e9f8 073e 4749 323f 696b 2e3f
00000100: 789c e63e 6ec1 283e 4641 8d3e 1155 ae3f
00000110: 6efe 35be 729e 143e 5885 e23d 5641 c13e
00000120: 3aac 763f 72c1 e03e 4591 63bf b4b1 7cbe
00000130: f9c8 3dbf 2b0f a43e 90fd 123e e178 63bf
00000140: 1239 8abc 0f92 b63d 400b cbbd 1796 e53e
00000150: 08a0 47bf 1eda 21bf 4dca 283f 8568 aa3e
00000160: 1386 ef3e 272d 8bbf 4122 05bf 364b e03e
00000170: 4062 d13d 4179 563f 34de d53d 92fb f63e
00000180: 27b1 a53e d774 7b3f d0b5 3abe 3a98 0c3e
00000190: 214f 05bf 4b74 e2bd a3fc 833e 1c6e b7be
000001a0: bee8 ee3d b41b da3e 6c54 bf3e 6a2f 453c
000001b0: 2f0d d23e 29a7 8b3e f9a3 8d3e d989 733f
000001c0: 1d52 5f3e 8db8 66be 9c0a 8fbf 47d5 543f
000001d0: 635e eebe d202 a23f 1490 0fbe d088 673e
000001e0: fe30 4c3d 4670 ed3d 556a 1f3f 481a e83e
000001f0: 9854 423f 4e04 10bd 14d8 973e d8a2 863e
00000200: 9ac6 d9be 592b 0fbf 5ceb 61bd 32cc 37be
00000210: 2386 a2be cb22 b83e f21e f53e 105a b0be
00000220: b742 26bf d1cf 52be 47f1 45bf 2b50 23bf
00000230: 059d 3dbf 6990 443f 8614 0dbe 360a 063e
00000240: f5b8 e43e fc46 c33e 2f26 6b3f 0a8b c0bd
00000250: 2381 66bf 2cd9 9dbe 5267 54bf dbaf 9fbe
00000260: 1f08 82be 73c4 003e 030e b7be 381b 9cbe
00000270: 2329 a2bd b644 383f ac57 bcbe 5e52 443f
00000280: 807b 3b3f da69 063f b5d5 3d3f 56ff 1b3d
00000290: c51a 8d3d 5626 9fbd 1f48 27bf 2e0a 66bd
000002a0: 41c2 e23e e732 cd3d 5334 54bf 5495 c33e
000002b0: 0f58 7fbe eeb6 2f3e 0f7c ca3e dec1 c53e
000002c0: a338 08bd d233 423e 3f3e a9be a57f 46bf
000002d0: 8c18 a7be 0afc 883b 9cb8 0b3d 9c05 8e3f
000002e0: 5cc7 e23e b42d 213e 8a46 853f da4c 08bf
000002f0: 5bc9 9e3f 5be4 e23c 1597 7d3e 7229 303f
00000300: 7c51 0abe 80f2 0d3d d5a5 45bf ba64 f03d
00000310: 46d4 9fbe 8f33 54bf 534d 26be 8b49 99bd
00000320: 39b6 35be e54b 963f 5dbd 45bf 4390 a0be
00000330: 5f99 2d3e 219e 95be 8fe1 a5be 83eb 41be
00000340: 8d3d 1c3f c2c9 013f 6f9c b63e 0c0c d23d
00000350: 0e33 54bf bf67 71be 0f53 123d 2063 793e
00000360: 36f9 dd3d a8ac e8bd 54d0 c3be 7a1b 563e
00000370: a5f3 ad3e eb77 cf3e 8801 143d 56dd e83a
00000380: 4642 b33d 4b55 81be 3e31 4d3f 881a 9e3e
00000390: 752a 3dbf dd48 bebe 9f54 1b3e 5956 6c3e
000003a0: 8613 253f a541 763e 5660 0f3f 7f70 063e
000003b0: 758c 42bf 6772 3b3e 4b3c bb3e 76c3 883e
000003c0: 0aca 573d a48b c53c 41a9 3ebe 3e38 6fbe
000003d0: b3f9 11bf 49df 423e 4a38 1c3f e5b4 a9be
000003e0: 5305 f5be dd04 3c3d 7a62 713f 76f4 013f
000003f0: 3fad 0f3f f242 2d3f 28eb 1a3e c73f ac3e

l1.bias f4 [8]
0.8887823 0.82881933 0.8003942 0.9053045 0.9220608 1.3222241 0.8691483 1.0491533
00000000: 3d87 633f 812d 543f a2e6 4c3f 09c2 673f
00000010: 2d0c 6c3f a43e a93f 8180 5e3f a84a 863f

l2.weight f4 [8, 8]
2.0760918 1.2987758 1.4473886 0.056250945 -0.22561085 -0.88736355 1.052747 0.47620732
0.027920939 -1.099395 -0.24407172 0.99623036 1.6419556 1.3336761 -0.25574452 -1.1999594
1.4398025 -0.8577749 -1.4370377 1.3063375 -1.0767485 2.220443 0.47315726 1.6277174
0.6715415 -0.006949915 0.8551137 0.98740923 -0.10739017 1.2128682 1.4506648 -2.0935214
-1.0996898 1.5163902 1.2813883 1.9972345 -0.5511071 0.06038893 1.6855565 2.3412852
-0.7527668 2.4299176 0.13076912 0.68927664 0.88718694 -0.07693808 1.8627067 -0.71037054
2.0572639 -0.34958586 2.023588 -0.63995975 0.58587426 0.05620229 0.14723437 0.14741924
-0.72582835 -0.41573378 1.4984603 -0.9826242 2.5206857 1.3069081 -1.3382229 0.90022147
00000000: b0de 0440 493e a63f 0844 b93f 6467 663d
00000010: 8806 67be 422a 63bf 6ac0 863f 72d1 f33e
00000020: 74ba e43c fab8 8cbf f0ed 79be f408 7f3f
00000030: 9a2b d23f e6b5 aa3f f2f0 82be 4598 99bf
00000040: 734b b83f 2397 5bbf daf0 b7bf 1136 a73f
00000050: e5d2 89bf bd1b 0e40 ab41 f23e 0b59 d03f
00000060: 25ea 2b3f 1dbc e3bb bbe8 5a3f dac6 7c3f
00000070: 61ef dbbd 443f 9b3f 62af b93f 41fc 05c0
00000080: a3c2 8cbf 1319 c23f 8804 a43f 61a5 ff3f
00000090: 5b15 0dbf 625a 773d 51c0 d73f 9ed7 1540
000000a0: 53b5 40bf c583 1b40 57e8 053e 6f74 303f
000000b0: af1e 633f b691 9dbd 2c6d ee3f d8da 35bf
000000c0: 36aa 0340 ebfc b2be 7782 0140 67d4 23bf
000000d0: dbfb 153f 5f34 663d 9bc4 163e 12f5 163e
000000e0: e3cf 39bf 0fdb d4be 8ccd bf3f 428d 7bbf
000000f0: ea52 2140 c448 a73f e34a abbf ea74 663f

l2.bias f4 [8]
0.7075607 0.27234545 0.779054 -0.17801632 0.07798901 -0.08166479 -0.19323815 1.0357697
00000000: b322 353f dd70 8b3e 1570 473f e949 36be
00000010: b4b8 9f3d df3f a7bd 39e0 45be 1a94 843f

l3.weight f4 [23, 8]
0.040587172 -0.4411779 -2.3855705 0.38114965 -0.45024222 0.15087703 0.1275214 0.07808484
-1.5003631 0.2512548 -0.28635186 0.19127274 -1.0286816 -0.03537654 -1.1734655 0.40479216
-1.384232 0.115701616 0.70702314 0.3656681 -2.4358232 -2.3651886 -0.27611578 0.19295995
0.196108 -1.9250909 -1.507131 -1.7471972 0.42665848 -2.1027603 0.23800834 1.0976859
-1.3338773 -0.49272677 0.10502171 -1.6288658 0.3628211 -1.5494852 -0.30356282 0.5837948
0.453407 -2.7622275 -1.4538267 -1.1075262 -0.2286682 0.040255826 0.6055289 0.16590746
0.29264048 -0.2067022 0.5998363 0.59048796 -1.8924836 -1.6007314 0.24573572 -1.254219
0.2327042 -2.002493 0.6969054 -2.9492946 0.5772429 0.22358678 -2.7338533 -0.9188301
-1.0969127 0.6046522 -0.052165747 -2.4911072 -2.2685323 -0.6079903 -0.4149493 1.0591613
-0.12228337 0.10795851 -2.3433175 -2.9451067 7.5856384e-05 0.61729133 -0.6159129 0.6698895
0.23024206 -3.1805072 1.1221107 -1.7910956 0.2379418 -2.4967077 -0.20436439 -0.5046469
-0.60294 -2.271982 -0.28830177 -0.64740825 0.46015364 0.21205668 -0.15411516 0.35012096
0.48396003 -1.6249157 -0.8119604 0.76675475 -0.23500152 0.14545208 0.5388161 -1.7042296
0.74204254 -0.642716 -1.6527916 0.17308828 -1.6391691 -1.8206607 0.81229025 0.3633487
0.3318493 -0.8587689 0.5068141 -1.03265 -1.3825203 -1.9961673 0.20291694 0.5216665
0.68411267 -2.6198397 -1.0493627 -1.1332066 0.66673523 -0.03567164 -0.10057803 -1.5076358
-0.21034873 0.0026804027 -0.4603332 0.28558052 -0.41956997 -0.45339194 -0.012520756 -0.41959283
-0.5308908 -0.2932288 -0.47619772 0.5860041 -0.09885428 0.5318255 -1.4373069 -0.7770782
-0.5994398 -0.43246895 0.61008215 0.13078569 0.34305266 -0.4401604 -1.6016818 -2.2640252
0.24444334 -2.445468 -0.21865492 -0.016916264 0.37420034 0.7317266 -1.8589765 -1.831725
-0.31843486 -1.0579361 0.29640025 -0.13918391 0.25961214 -1.2033993 0.37902573 -0.90603954
-0.000112400565 -1.669375 -2.5328472 -0.06644368 0.5247441 0.745347 -0.39473796 -0.77096117
-1.6876763 0.5324117 0.624924 0.26814118 -0.11196903 -2.2699475 -2.2075362 -0.1633226
00000000: bc3e 263d 12e2 e1be 30ad 18c0 0c26 c33e
00000010: 2686 e6be 827f 1a3e f894 023e f2ea 9f3d
00000020: e60b c0bf 78a4 803e b69c 92be 00dd 433e
00000030: d7ab 83bf fee6 10bd 1e34 96bf eb40 cf3e
00000040: 842e b1bf f8f4 ec3d 78ff 343f d938 bb3e
00000050: 87e4 1bc0 405f 17c0 0c5f 8dbe 4b97 453e
00000060: 89d0 483e 6169 f6bf abe9 c0bf 28a4 dfbf
00000070: fb72 da3e a093 06c0 75b8 733e f980 8c3f
00000080: 7ebc aabf af46 fcbe 9f15 d73d ad7e d0bf
00000090: b0c3 b93e 8855 c6bf 966c 9bbe 9373 153f
000000a0: f624 e83e 56c8 30c0 fe16 babf 6bc3 8dbf
000000b0: ff27 6abe 4be3 243d f103 1b3f a5e3 293e
000000c0: f9d4 953e bea9 53be df8e 193f 382a 173f
000000d0: e73c f2bf c4e4 ccbf 25a2 7b3e 408a a0bf
000000e0: 034a 6e3e d828 00c0 6468 323f 3ec1 3cc0
000000f0: 31c6 133f eff3 643e 74f7 2ec0 7338 6bbf
00000100: a367 8cbf 7dca 1a3f c0ab 55bd 4d6e 1fc0
00000110: a22f 11c0 41a5 1bbf 3c74 d4be 9992 873f
00000120: b46f fabd 5a19 dd3d eaf8 15c0 a17c 3cc0
00000130: 1615 9f38 ce06 1e3f 78ac 1dbf e17d 2b3f
00000140: 93c4 6b3e 6e8d 4bc0 53a1 8f3f 9f42 e5bf
00000150: 04a7 733e 0fca 1fc0 e644 51be 8a30 01bf
00000160: 475a 1abf 2768 11c0 4a9c 93be 8cbc 25bf
00000170: 4299 eb3e 6325 593e 5dd0 1dbe 0e43 b33e
00000180: 9cc9 f73e 3dfd cfbf a3dc 4fbf 0a4a 443f
00000190: 3da4 70be 64f1 143e daef 093f 3224 dabf
000001a0: 80f6 3d3f 0989 24bf ad8e d3bf 0e3e 313e
000001b0: 4bd0 d1bf 690b e9bf 41f2 4f3f d708 ba3e
000001c0: 27e8 a93e 47d8 5bbf 92be 013f e02d 84bf
000001d0: 6df6 b0bf 6982 ffbf 75c9 4f3e f08b 053f
000001e0: 0222 2f3f 74ab 27c0 8451 86bf ea0c 91bf
000001f0: 29af 2a3f 6d1c 12bd dbfb cdbd 36fa c0bf
00000200: a865 57be b2a9 2f3b cbb0 ebbe 9c37 923e
00000210: e0d1 d6be fd22 e8be db23 4dbc dfd4 d6be
00000220: 76e8 07bf 1622 96be 30d0 f3be 5d04 163f
00000230: 1d74 cabd b725 083f acf9 b7bf 99ee 46bf
00000240: e374 19bf 926c ddbe 582e 1c3f afec 053e
00000250: 99a4 af3e b45c e1be e903 cdbf cae5 10c0
00000260: 5b4f 7a3e 8c82 1cc0 13e7 5fbe fa93 8abc
00000270: 3097 bf3e 6f52 3b3f f1f2 edbf f775 eabf
00000280: e509 a3be 736a 87bf c6c1 973e 3a86 0ebe
00000290: e2eb 843e fd08 9abf a90f c23e 35f2 67bf
000002a0: 98b8 ebb8 14ae d5bf 2b1a 22c0 a013 88bd
000002b0: a155 063f 10cf 3e3f 181b cabe b65d 45bf
000002c0: c705 d8bf 224c 083f 05fb 1f3f cd49 893e
000002d0: 0550 e5bd d246 11c0 4648 0dc0 0a3e 27be

l3.bias f4 [23]
0.18286154 -0.24294135 0.016398286 0.21986715 -0.073372684 -0.45884398 0.35400444 0.46173164
0.6535059 0.32168347 0.5533518 -0.12643507 -0.15797555 -0.012499821 0.21601823 -0.013459929
-0.06596365 -0.45797428 0.062489044 -0.4564737 -0.68177396 0.097564965 0.40864182
00000000: 0e40 3b3e 9ec5 78be b355 863c db24 613e
00000010: 6b44 96bd 99ed eabe 1240 b53e 1768 ec3e
00000020: 2a4c 273f b2b3 a43e 77a8 0d3f 3278 01be
00000030: 58c4 21be 0dcc 4cbc e233 5d3e 0987 5cbc
00000040: f317 87bd 9b7b eabe 83f4 7f3d ecb6 e9be
00000050: bd88 2ebf 24d0 c73d 8039 d13e
