chatbot/chatbot-deployment/data.pth (torch, 8874 bytes, 6 tensors)

l1.weight f4 [8, 112]
000000 45 63 49 3e c9 ae 16 3f 4c ec e9 3e 66 c1 1a 3e
       0.19666775 0.5886045 0.45688093 0.15112838
000010 70 78 1a 3f d9 70 8e 3f 13 7e e9 3e 9d c5 c7 3d
       0.60340023 1.1128188 0.45604 0.097544886
000020 7f a5 01 bf e8 4e 37 be 93 b4 6a 3e 59 78 e5 bd
       -0.5064315 -0.17901194 0.22920446 -0.11204595
000030 93 2a 34 bf 4c 56 3f bd 60 e1 68 3e 73 c5 8a 3e
       -0.70377463 -0.04671316 0.22742224 0.27103767
000040 d8 a2 81 bc 7e 83 27 bf 23 89 dc 3b 80 19 8a b9
       -0.01582472 -0.65435016 0.006730215 -0.0002634041
000050 af ea 1d 3f 55 6b 18 3e 21 2b 6c 3f c7 cb 52 bf
       0.61686224 0.14884694 0.9225331 -0.8234219
000060 72 67 7e 3f a5 4a 85 be 57 50 42 bf e1 d4 49 bf
       0.99376595 -0.26033512 -0.7590384 -0.7884045
000070 ed 0b 4a bf 37 e3 3e 3e bd 0b f4 bc 23 64 2b 3e
       -0.7892445 0.18641363 -0.029790753 0.16737418
000080 bb 87 77 3d 54 b3 42 3f 07 0b 58 3e 90 5d e4 3c
       0.060432177 0.76054883 0.21097957 0.027876645
000090 35 15 17 3f 50 2d 1a 3f 30 26 cf 3e 52 44 3a bf
       0.59016734 0.6022539 0.40458822 -0.727605
0000a0 f7 9d 99 3d ee c1 0d 3f bc 6d 34 3f 92 de 91 be
       0.075008325 0.5537404 0.7047994 -0.2849012
0000b0 d4 26 27 3f c1 00 76 3e e3 48 f5 3e f0 37 76 3e
       0.6529362 0.24023725 0.4790717 0.24044776
0000c0 6c 00 2b 3e 61 1f 88 3f 5d 11 01 3e e9 b4 03 3f
       0.1669938 1.0634576 0.1260428 0.5144792
0000d0 1b 4d 30 3f 90 4f 6c be eb 33 39 bf 96 f8 65 3d
       0.68867654 -0.23077226 -0.72344846 0.056145273
0000e0 24 76 b5 bf a2 1c f8 bd b1 83 09 bf 44 37 ab 3e
       -1.4176679 -0.12114836 -0.5371657 0.33440602
0000f0 aa 70 c1 be 6f e9 68 3e cf 6f 48 3f af 87 2e 3f
       -0.37781268 0.22745298 0.78295606 0.68175787
000100 3f 69 04 3f 5e d0 ac 3e 48 e3 67 3c 73 b5 a4 3f
       0.5172309 0.33752722 0.014153309 1.2867874
000110 bd f8 1f bd a5 4b e1 3e de b5 88 3e fa 2a af bf
       -0.039055575 0.44003025 0.26701254 -1.368499
000120 b3 74 43 3f a0 d7 60 3f 24 6d 3f 3f 69 db 4e 3f
       0.76349944 0.8782902 0.7477591 0.80803543
000130 fb af 91 3f f2 40 76 3d 90 e6 37 3e 6a 3e 97 3f
       1.138183 0.06012053 0.17959046 1.1815922
000140 5e 20 21 3d 65 7b da bd c1 e3 92 3f 48 22 56 be
       0.03933751 -0.10668067 1.1475755 -0.20911515
000150 8b de 18 bf 1c cf 45 3f ac 21 fa 3e c2 c1 f7 3d
       -0.59714574 0.7726915 0.48853815 0.12097503
000160 28 1e 4a 3c 6e 48 5b bf 01 b4 3f bf 5f 0c bf 3e
       0.012336291 -0.85657394 -0.7488404 0.37314126
000170 97 06 6b 3b 48 fa 3e 3f 88 71 b0 bd 18 b5 f9 3e
       0.0035862082 0.7460065 -0.08615404 0.48770976
000180 6e a8 24 3c 14 ba 4a 3f 84 74 c0 bc 9f 38 48 3e
       0.010049922 0.7919018 -0.023493059 0.19552849
000190 00 cb 46 3f 15 38 e6 3e e0 36 75 be f3 71 65 3e
       0.77653503 0.44964662 -0.23946714 0.2240675
0001a0 bb 81 a0 3e e3 cd a2 3e f8 87 a9 be 0a 21 37 3d
       0.31348976 0.31797704 -0.33111548 0.044709243
0001b0 c9 37 d1 3e df 90 17 be f2 28 c6 3e f9 f5 8e 3f
       0.40862873 -0.14801358 0.38703114 1.1168815
0001c0 c7 58 92 3d c0 aa 8c be a8 76 38 3f 88 a8 37 bf
       0.07145839 -0.27474022 0.72056055 -0.71741533
0001d0 79 e4 0e 3f 0d 02 07 3f ae b0 03 bd a2 54 dc 3e
       0.5581737 0.52737504 -0.032150917 0.4303332
0001e0 06 37 14 bf 59 1f 5c 3e 1b d2 19 3f f0 87 a6 3e
       -0.5789646 0.21496333 0.6008622 0.32525587
0001f0 45 43 81 3f 10 33 a2 3e a9 34 b2 be dd a3 fd bc
       1.0098654 0.31679583 -0.34805802 -0.030961925
000200 6a 09 01 be cf 15 86 bf ca 86 ca 3e 7a 76 c5 bd
       -0.12601247 -1.0475405 0.3955596 -0.09641738
000210 3b 94 3f bf 84 31 07 3f 46 b8 24 bf 15 c6 59 3f
       -0.74835557 0.5280993 -0.6434368 0.85067874
000220 24 6c 18 bf 59 45 a3 3f d3 01 46 bf 93 44 fc 3e
       -0.5954001 1.2755538 -0.77346534 0.49271068
000230 93 84 95 3e b3 c8 df be a5 1c a0 3e c2 16 77 3e
       0.2920271 -0.4370781 0.31271854 0.24129775
000240 69 0a 77 bc ad 1d d7 be 3e 1e 69 3f 36 b1 82 3b
       -0.015078166 -0.42014828 0.9106177 0.0039884103
000250 c7 d1 89 3d 81 4c 37 bf bc 62 85 3f 19 94 7a 3f
       0.06729465 -0.7160111 1.0420756 0.9788223
000260 0d 83 e7 bd 4b 2b ce 38 78 55 34 bf 87 bf 56 3e
       -0.11304293 9.8309094e-05 -0.70442915 0.209715
000270 d6 ab 0a be 7d cd 2a bf 3e 49 80 be e5 32 23 bf
       -0.13542113 -0.667198 -0.2505588 -0.63749534
000280 85 6d 3a bf 59 64 87 bf 0d b9 a0 be 9d 2e c0 3d
       -0.72823364 -1.0577499 -0.31391183 0.09383891
000290 36 bc 32 3f 8b 61 d8 3e 2d ba 7a 3f 1c 31 ab 3e
       0.6981844 0.4226192 0.9794033 0.33435905
0002a0 29 c1 ba be 8d 7e b2 3c 83 b0 44 3f b7 6c a2 3e
       -0.36475495 0.02178886 0.76831836 0.31723568
0002b0 09 38 d1 3e 38 85 94 bd 1b 34 ae be 0f 3c bf be
       0.40863064 -0.07251972 -0.34024128 -0.3735051
0002c0 4d 2b da be 68 d9 bc bd d0 14 9d 3e aa aa ae 3f
       -0.4261116 -0.092211545 0.3067994 1.3645833
0002d0 20 d6 13 bd 3d f0 b0 bc 5c e0 b0 3e 31 f5 9f 3f
       -0.036092877 -0.02159893 0.34546173 1.2496701
0002e0 a1 2a 2f bf ec 4f 97 3f 9e 65 fd 3d 9c 69 a5 3f
       -0.6842442 1.1821265 0.123728976 1.2922854
0002f0 93 f1 91 3f 71 e2 c0 3e f3 58 36 bd 26 e6 41 bf
       1.1401848 0.3767276 -0.044518422 -0.75741804
000300 0e 2a a0 bd dd 43 02 3f 0e 2d 09 bf a9 ca 07 3f
       -0.07820521 0.508848 -0.53584373 0.5304361
000310 7d 8d 25 bf 27 e4 41 bf 19 33 36 3f 14 01 ea 3e
       -0.6466902 -0.7573876 0.7117172 0.45703948
000320 42 34 b2 3e 88 a9 2c bf 0c 1a 43 bf 65 8b 6f 3e
       0.34805495 -0.67446184 -0.7621162 0.23393019
000330 bf 9b a8 3e a0 9e 2d bf 81 b0 83 be 95 64 8b be
       0.32931325 -0.6782017 -0.257206 -0.27225175
000340 15 ed 17 3f f4 c4 31 bf b0 8a 90 3d a9 be aa 3e
       0.59346133 -0.6944115 0.070577025 0.33348587
000350 49 b9 5d bf bd c4 6d be 9a 92 16 3f 70 c3 b3 be
       -0.8661085 -0.23219581 0.58817446 -0.35110044
000360 e6 93 dc 3b 7c 0c d5 3e 90 81 de 3e df 6a fd 3e
       0.006731498 0.41611087 0.43458223 0.494956
000370 fb e7 85 be 98 4b b7 3e a3 8d de 3d 35 b6 3e 3e
       -0.2615355 0.3579986 0.10866859 0.18624194
000380 f3 cc 4b bc 2d 76 56 be 74 3a 70 bf ba df de be
       -0.012439 -0.20943518 -0.9383919 -0.43530065
000390 77 dc 0d bf b6 c2 a1 3f c4 05 57 bd 63 26 9e 3e
       -0.5541453 1.2637546 -0.052495733 0.30888662
0003a0 2c a0 15 bf f3 fa 9e 3e 74 25 32 3f 95 ae 1a 3f
       -0.5844753 0.31050834 0.695884 0.6042264
0003b0 ed 15 f7 be 3d a7 9f 3e e0 da 1b 3f 55 9a 81 3e
       -0.48258916 0.3118228 0.6088085 0.25313058
0003c0 74 78 c1 bd 21 c4 e8 be 40 f0 2e be 51 74 27 3e
       -0.09446803 -0.45462134 -0.17083836 0.16352965
0003d0 83 fa 19 3f 76 89 06 3f cb d3 80 be f7 a8 1c bf
       0.60147876 0.525535 -0.25161585 -0.6119532
0003e0 05 86 89 bd c8 52 d6 3c 16 83 62 bf 55 23 36 3d
       -0.06715015 0.02616252 -0.8848127 0.04446729
0003f0 eb c2 b3 be cb d9 5c 3f e9 38 67 be 54 ce 19 3e
       -0.35109648 0.86269826 -0.22580303 0.15020114

l1.bias f4 [8]
000000 d9 96 b8 3f 7e e4 41 3f fd 76 62 3f f5 c6 80 3f
       1.4421035 0.75739276 0.8846281 1.0060717
000010 60 17 d8 bd 1b 57 dd 3f 44 e7 51 3f 29 79 5c 3f
       -0.105513334 1.7292207 0.8199351 0.86122376

l2.weight f4 [8, 8]
000000 23 97 0e 40 10 f7 d4 bf e1 af 52 bf 5a d1 2e bf
       2.2279747 -1.6637897 -0.8229962 -0.68288195
000010 9d bf 59 3e 66 39 51 3f 98 d8 1f 3f 92 16 ce 3f
       0.21264501 0.8172821 0.6243987 1.6100638
000020 5e a1 d0 3d f6 dc 80 3f 98 56 9f bf 02 e9 1e 3d
       0.10187028 1.0067432 -1.2448301 0.038796432
000030 e5 41 7f bd 36 90 ae 3f 3b ff 0a bf 30 a6 5f 3f
       -0.0623187 1.363776 -0.542957 0.87362957
000040 e3 3b 2d be ef e4 68 bd 0e 79 3b be 66 23 94 be
       -0.16917376 -0.056858953 -0.18307897 -0.28933257
000050 86 d8 18 3e 27 c4 94 3d 3e a6 d4 3d 43 e2 59 be
       0.14926347 0.072639756 0.10383271 -0.21277718
000060 02 e4 8c bf fd 33 b8 bf c5 39 c6 3f 4a 73 bb 3f
       -1.1007082 -1.4390866 1.548638 1.4644558
000070 11 fb a1 3d b5 77 5f 3f 97 a0 07 40 64 02 17 40
       0.07909215 0.87292033 2.1191766 2.359521
000080 fa f2 b9 3e 3b 68 b7 3e 68 88 85 3f b3 a9 5b bf
       0.3631819 0.3582171 1.0432253 -0.85805815
000090 91 c8 65 3e 10 a1 07 40 3d 6f cb bf 12 f5 3b bf
       0.22439791 2.1192055 -1.5893322 -0.7342082
0000a0 1f 3e d7 bf 0c eb d9 3f e8 f6 c4 bf 17 3b 3d 3f
       -1.6815833 1.7024856 -1.538785 0.7391829
0000b0 c7 c6 a2 be 18 b9 cd 3f 32 cd dc 3f c3 ce 85 3f
       -0.3179228 1.6072111 1.7250121 1.0453724
0000c0 30 98 ef 3e 56 7c 51 bf 57 08 95 bf 71 dc 0d 40
       0.46795797 -0.81830347 -1.164317 2.2165797
0000d0 14 03 d2 39 e9 3b b7 3f 18 4c 1a 3f 0b b7 ef bf
       0.00040056615 1.4315158 0.6027236 -1.8727735
0000e0 6b de 0f 40 a1 20 17 40 fd 28 12 40 06 7d e6 3f
       2.2479503 2.3613665 2.2837517 1.8006904
0000f0 7c 7e 81 bd eb 87 a1 be 14 e0 12 3f 0c 65 be bf
       -0.06322953 -0.3154901 0.57373166 -1.4874587

l2.bias f4 [8]
000000 17 7c 9b 3f 6c 41 10 3f 4e ac ee bd 68 2e ae 3e
       1.2147244 0.56349826 -0.11653958 0.3401978
000010 55 74 93 3f d6 a6 5e 3e b5 31 66 3f 08 dd cc 3e
       1.1519877 0.2174333 0.89919597 0.40012383

l3.weight f4 [23, 8]
000000 96 48 3c bf b9 6b 0c 3f 1d 75 b1 be ba ad 0f bc
       -0.7354826 0.5485187 -0.34659663 -0.008769447
000010 0e d6 04 3f 69 3d 08 3e f9 d5 46 3f 12 d0 16 c0
       0.5188912 0.13304676 0.77670246 -2.3564496
000020 e6 3c e7 bf 71 97 22 3f 49 10 77 be c5 5d a6 bf
       -1.806546 0.6351233 -0.24127306 -1.2997366
000030 df 89 bd 3e cf 41 08 3f 59 6d fc bd bc 28 57 bf
       0.3701925 0.53225416 -0.12325544 -0.8404653
000040 80 05 6c 3f 2b 59 1f c0 63 c7 3f be 56 59 c0 bf
       0.9219589 -2.4898174 -0.18728404 -1.5027263
000050 06 2f 6c be 7d 67 92 bf 0e b6 a8 bf c9 3f f4 3e
       -0.23064813 -1.1437832 -1.3180559 0.47704914
000060 db 8e cc 3e f2 8d 5e 3d 2c e8 ce bc 6e 50 d0 3e
       0.3995274 0.05433459 -0.025257193 0.40686363
000070 3a d8 78 bf 26 cc 14 3f e0 a8 6e 3b 96 e4 42 c0
       -0.97204936 0.58124006 0.0036416575 -3.0452018
000080 ae 1a 58 bf ba 69 9e 3c cc b3 90 be be c0 26 3f
       -0.8441571 0.019337524 -0.28262174 0.6513785
000090 77 fa fd bf 72 5c 8d 3e df 27 ed 3e 00 9a a3 bf
       -1.9842061 0.27609593 0.46319482 -1.2781372
0000a0 83 d8 c7 bf e4 ff 1f c0 43 2f a1 3c 19 09 c4 bf
       -1.5612949 -2.4999933 0.019675856 -1.5315276
0000b0 de a5 82 be 66 fd 84 bf cc 4f 17 c0 ef 1a 84 3f
       -0.25517172 -1.0389831 -2.3642454 1.032072
0000c0 fe 96 99 bf 4b a2 ae bf b6 64 9c bd f1 95 f5 3e
       -1.1999204 -1.3643278 -0.076363966 0.4796596
0000d0 15 b0 d8 bf c3 33 13 bf 8b 14 b7 bf 78 05 31 3f
       -1.6928736 -0.5750086 -1.4303144 0.6914897
0000e0 5f f2 60 bd 53 2b 26 3f 56 46 c4 3c b5 33 43 3e
       -0.054918643 0.6490986 0.02395932 0.19062693
0000f0 65 75 8a 3d e4 6d c9 3e 68 8f 42 c0 32 df 95 bf
       0.067606725 0.39341652 -3.0400028 -1.1708739
000100 f8 cd 0f 3e 9f 1f 8a bf 87 da e0 bd 58 99 17 3f
       0.14043415 -1.07909 -0.10979181 0.5921836
000110 bc 7d bb 3d 77 1b 47 c0 59 0f 1f c0 4c 5e 66 3e
       0.09154841 -3.1110513 -2.4853117 0.22496909
000120 9e 1a 8b 3f 1a 79 8d 3e 2d c8 1c 3e 97 ec 08 3f
       1.0867498 0.27631456 0.15310736 0.5348601
000130 ae 79 d1 bf 55 cb e6 bf d1 b8 0f c0 a8 c9 43 bf
       -1.6365259 -1.8030802 -2.2456553 -0.7647958
000140 d2 f1 ca 3d 3e a2 f8 bf 35 9f bc be b7 12 51 bd
       0.09909405 -1.9424512 -0.36840215 -0.05104324
000150 18 7b 46 bf 6d 2b 24 c0 80 dd 76 3f 96 29 da 3d
       -0.77531576 -2.5651505 0.9643173 0.10652463
000160 1a 60 b0 3d 4c be d5 be e4 19 16 be bf 1d 4e 3f
       0.0861208 -0.41746747 -0.14658314 0.8051414
000170 f8 74 28 bf 62 02 3e bf 25 ac b1 be 75 73 1b bf
       -0.6580348 -0.74222386 -0.34701648 -0.6072305
000180 0a 66 3e 3f 33 97 6e be 52 6d 14 3e b9 f8 af bf
       0.7437445 -0.23299865 0.14494827 -1.3747779
000190 0c d4 17 3f 5f e5 14 c0 8d 12 4e 3f df e9 04 bf
       0.5930793 -2.3264997 0.80497056 -0.5191936
0001a0 38 ff 18 c0 d6 ee 06 bf c5 2e 1e 3e 80 2a 75 3d
       -2.3905773 -0.52708185 0.15447529 0.059854984
0001b0 37 5f 7b be 12 dc 04 bf 4d 2b 08 3f 80 2d 0e 3e
       -0.2454804 -0.518983 0.5319107 0.13884544
0001c0 1c 92 37 bf 92 a8 95 be df b6 84 be df 5c cb bf
       -0.7170732 -0.2923017 -0.2592077 -1.5887717
0001d0 11 ca 1d be a0 27 1b c0 28 e7 8f 3d 46 5c 25 3f
       -0.15409113 -2.4242935 0.070265114 0.64593923
0001e0 52 3c 05 c0 01 22 dc be ac a8 59 be 70 6f 0a 3f
       -2.0818067 -0.42994693 -0.2125575 0.5407629
0001f0 7d f9 a3 bd ce 83 ed 3e b2 d7 fe bf 56 bc 54 be
       -0.080065705 0.46389621 -1.9909575 -0.2077497
000200 e6 66 ca 3e 48 3c e0 3e 84 68 a4 3e 05 a6 df bf
       0.3953163 0.4379599 0.3211099 -1.747254
000210 a5 b7 7c bd 00 3d 6a 3e 22 69 8b bf 9f a2 c1 be
       -0.061698575 0.22874832 -1.0891459 -0.37819383
000220 49 3f 09 be ea 25 4c be 43 20 c3 be a6 e8 f3 be
       -0.13403048 -0.19936338 -0.3811055 -0.47638434
000230 83 2b 25 bf 3b 1f 7e 3d 7a f4 57 3f ea 6b 29 bf
       -0.6451952 0.062041502 0.84357417 -0.6618029
000240 8c 4a 0d bf 8a a3 e3 3e 50 5a b3 be 25 04 30 c0
       -0.55191875 0.44460708 -0.3502984 -2.750253
000250 95 fc 89 be 8b 28 f0 be a2 68 5f 3f 1e 72 b9 bd
       -0.26950517 -0.46905932 0.8726903 -0.09054969
000260 dc 7a b2 3e 64 82 d2 3e 19 2e 65 be 46 bb ea bf
       0.3485936 0.41115105 -0.22380866 -1.8338401
000270 ff cb 19 3f 34 1a ab bf a6 d5 13 c0 b9 14 44 3e
       0.600769 -1.3367372 -2.309915 0.1914853
000280 9b 54 12 c0 90 ae a9 3e 2c 99 94 be 90 65 89 3d
       -2.286414 0.33140993 -0.2902311 0.06708825
000290 fe a2 d8 bf 26 84 23 3f 9d f8 72 be 10 15 6c be
       -1.6924741 0.6387352 -0.23727651 -0.2305491
0002a0 31 e3 4a bf 2c 04 6e be 0e a4 e2 3c 3f 33 be 3d
       -0.79252917 -0.23243779 0.027666118 0.09287118
0002b0 c0 42 83 3f 7c 8b 1f bf 73 fa 41 bf 60 75 23 bf
       1.0254745 -0.6232221 -0.7577278 -0.63850975
0002c0 3e 5f 6a 3f ec 17 14 3f b7 30 fe bc 2b c2 a1 be
       0.9155158 0.57849 -0.031029088 -0.3159345
0002d0 b4 42 b8 3e a3 1e 53 bf 41 28 4e be 35 fd eb bf
       0.3598839 -0.8246862 -0.20132543 -1.8436648

l3.bias f4 [23]
000000 55 91 0e be 71 47 18 3e 94 9e 9d 3e a6 eb ed bd
       -0.13922627 0.14871003 0.30785048 -0.11617212
000010 f8 37 cd be bd e9 ae 3e 13 d5 9c 3d a4 42 ab 3e
       -0.40081763 0.34162703 0.07657828 0.3344928
000020 05 88 b1 3e c6 42 e0 3e 5f 3f 85 3e 65 0f 58 3d
       0.34674087 0.43800944 0.2602491 0.052749056
000030 e1 03 b3 be 98 bc 29 be 45 ac 7c 3e 4c 2e 5c 3e
       -0.34963897 -0.16575849 0.2467509 0.21502036
000040 a0 37 97 be 3e 34 e3 be 8a f6 fa 3d b0 c4 d2 3e
       -0.29534626 -0.44375795 0.12254055 0.41165686
000050 5d 46 40 be 5f 91 7c 3e 1d b4 99 be
       -0.18776841 0.2466483 -0.30020228
